seibetsujudge.pt (torch, 123661 bytes, 8 tensors)

conv.weight f4 [6, 3, 3, 3]
000000 db 5f 85 3c c6 ca c4 3d 3c d4 16 be 88 72 28 be
       0.016281059 0.096089885 -0.14729398 -0.1644994
000010 df 29 25 be 37 38 40 ba 60 31 dc bc 5e c5 24 3e
       -0.16129254 -0.00073325954 -0.026879013 0.16090915
000020 ff 88 e5 bb c9 4a 75 3d 5a 00 b9 bd d4 47 69 bd
       -0.0070048566 0.059885774 -0.0903327 -0.056953266
000030 d0 9b 44 be 5c b3 53 be d1 89 fb bd 73 d8 f1 3c
       -0.19200063 -0.20673889 -0.12282146 0.029522156
000040 87 ba 01 3e 0b 27 32 3e bd aa eb bd 7d af f5 bd
       0.12668811 0.17397706 -0.11507175 -0.11996362
000050 72 39 39 3d 70 47 33 3e 36 a9 d0 bd ee cd ef 3d
       0.0452208 0.1750772 -0.101885244 0.117092
000060 9d 2b 91 3c 2c 9f b2 3d 16 2a 7c 3e fa 16 39 be
       0.017720992 0.08721766 0.2462543 -0.18075171
000070 bc 57 16 be 4a 6f 95 bd 8d d3 9d bd 01 d1 0f 3e
       -0.14681906 -0.07296617 -0.07706366 0.14044572
000080 f3 36 19 be b7 1b b9 bd 9a d3 0b be 34 db 39 be
       -0.14962368 -0.09038489 -0.13654938 -0.18150026
000090 14 ee e2 bd 75 e8 0d 3e 23 2a 77 3d 57 76 c5 3d
       -0.11080566 0.13858207 0.06034292 0.09641712
0000a0 48 9d 86 bc 49 66 ff bd bd 30 16 3d d8 b5 34 be
       -0.01643242 -0.12470681 0.036667574 -0.17647493
0000b0 f0 e2 0a be 06 c6 c0 bd f2 be c9 3d 0d dc ba 3d
       -0.13563132 -0.0941277 0.09850873 0.091240026
0000c0 a1 28 a0 bd c2 6a e6 bc ee 0d d1 3d 7c 3c 4d 3e
       -0.07820249 -0.028127078 0.10207735 0.20042604
0000d0 45 f7 ac 3d 6a e8 0a 3d fa c1 51 3e 65 65 16 bd
       0.084456004 0.033913054 0.20484152 -0.03671779
0000e0 9f 8e 06 3e 29 21 b2 bd cb 6c 92 bd 57 b0 8f bc
       0.13140343 -0.08697731 -0.07149657 -0.01754014
0000f0 b6 b6 04 3e f9 aa f4 3d 63 74 53 bd b8 3b db 3d
       0.12960324 0.11946673 -0.051624667 0.1070475
000100 8c 46 22 3e b1 47 2a 3d c2 ca 5d 3d f2 f7 bf 3d
       0.15847224 0.041572277 0.054148443 0.09373464
000110 4e 15 3b 3e 60 67 62 3e 72 3b e3 bd cb 9c 9a bc
       0.18269846 0.22109747 -0.11095323 -0.018873593
000120 09 3f 0a 3e 8a 3f 66 3e 1f 81 78 3e 1d 06 75 3e
       0.13500609 0.22485176 0.24268006 0.23928113
000130 47 8f e3 3d 54 a2 ab bd c1 78 b1 3d 3d 94 4a bd
       0.11111312 -0.08380571 0.0866561 -0.049457777
000140 6b 00 ca bd f1 2b 91 3e f7 7e 77 3e 27 19 87 bd
       -0.09863361 0.28353837 0.24169527 -0.06596594
000150 9d 5b f3 3d 16 cd d5 3c dc c0 58 3d 3a 66 1c bd
       0.11882708 0.02609877 0.0529183 -0.03818343
000160 9a ba b5 3d 8d df 4c bd 68 e9 f0 3d 96 c2 0a 3e
       0.08873482 -0.050017882 0.11763269 0.13550791
000170 00 2e 4d 3e a7 cb dd 3d 79 e9 2c be b1 e7 ad bd
       0.20037079 0.10829859 -0.16885938 -0.08491457
000180 64 c6 02 3e e7 87 31 3d 52 f8 dc bd f9 eb 1d be
       0.12770993 0.043342497 -0.10789551 -0.15422048
000190 e5 7b 0d 3e 92 81 d9 3d 76 a8 ed bd 5e d5 b4 bd
       0.13816793 0.10620417 -0.11604397 -0.08829759
0001a0 a0 41 56 be d4 98 c5 bb 46 23 2d be 6f 65 0d be
       -0.20923471 -0.0060301814 -0.16907987 -0.13808225
0001b0 27 1b ba bc 4d 16 98 3c cf 65 b6 bd 3f 09 d2 3d
       -0.022718025 0.018565321 -0.08906137 0.1025567
0001c0 73 1c 02 be c3 b3 28 3e 17 af 04 3e 03 91 27 be
       -0.12706165 0.16474824 0.12957416 -0.16363911
0001d0 e6 57 48 bd e2 c7 27 bb 78 12 8f 3c 30 c8 10 3d
       -0.04891195 -0.0025601317 0.017464861 0.035347164
0001e0 6e e2 82 3d e2 9e 1d 3a b4 5d d6 bd 47 59 ba 3d
       0.06390844 0.000601275 -0.10467091 0.090990596
0001f0 b1 0d 3d be bb 14 e9 bd b0 1e 67 bd 62 0c d0 bd
       -0.18462254 -0.11380907 -0.05642575 -0.10158612
000200 ab 30 99 bd 89 4c 2a be 37 d0 48 bd 02 0c 09 3d
       -0.07479986 -0.16630758 -0.049026694 0.033458717
000210 74 f3 00 be 40 c9 23 bc c0 b4 0d 3e bf 1f 13 3d
       -0.1259287 -0.009996712 0.13838482 0.035918947
000220 86 3c ba 3d 68 9b 3e 3d 9b 7c 9b 3c 72 8a e2 3d
       0.09093575 0.046534926 0.018980315 0.110615626
000230 84 38 05 3e fb 1a 2d 3e b3 57 52 3e 74 e6 d1 bc
       0.1300984 0.16904823 0.20541267 -0.025622584
000240 7d 15 00 be 79 f7 db bc ae 0e 58 3e d9 9a 8b bd
       -0.12508197 -0.026851403 0.2109935 -0.06816644
000250 b3 7b 2e be 56 69 60 be 40 cd 81 be 7b 8b 8d be
       -0.17039375 -0.21915182 -0.25351906 -0.27645478
000260 a3 df 12 be e3 9a 41 3e c0 52 53 3e e1 e1 90 bd
       -0.14343123 0.18906741 0.20637035 -0.07074333
000270 0f 65 05 3e aa 41 15 be c0 b9 1f bd 67 8c 3b bd
       0.13026832 -0.1457583 -0.038995504 -0.045788195
000280 18 44 2b bd 99 fa ff bc
       -0.041812986 -0.031247424

conv.bias f4 [6]
000000 c6 1e 51 be a2 5d 50 be 3d 87 9d bd 45 4b e5 3c
       -0.20421895 -0.20348218 -0.0769181 0.027989993
000010 d3 d3 dd bd 23 6f 31 3d
       -0.10831418 0.04331888

bn.weight f4 [6]
000000 1a 33 86 3f ce c6 7f 3f 45 be 2e 3f 24 c3 3f 3f
       1.0484345 0.99912727 0.6825908 0.74907136
000010 81 c7 7f 3f 64 d2 2d 3f
       0.99913794 0.67899156

bn.bias f4 [6]
000000 26 b4 d0 3c 91 af e1 ba 53 dc c2 bd be aa 1c be
       0.025476526 -0.001721846 -0.0951468 -0.15299508
000010 e8 1c 44 bb 40 06 a4 bd
       -0.0029924456 -0.080090046

bn.running_mean f4 [6]
000000 7a db 45 38 6d f6 ee 35 84 24 42 3f 24 dd aa 3e
       4.7172864e-05 1.7804101e-06 0.7583697 0.33371842
000010 f2 d5 35 2d 75 e3 dd 3d
       1.0336164e-11 0.108343996

bn.running_var f4 [6]
000000 2b dc cd 36 d8 b8 bb 33 76 ed 2f 3e 75 91 b7 3c
       6.135107e-06 8.741489e-08 0.17180428 0.022408227
000010 cb 7e 82 2a 38 ad bc 3b
       2.318062e-13 0.005757954

fc.weight f4 [2, 15000]
000000 c6 72 80 3a 05 81 44 bc 6a f0 36 ba a7 44 b7 bb
       0.000979983 -0.011993651 -0.00069785735 -0.005592901
000010 9f cd de bc 68 63 91 bc 87 c7 53 3b 5f 2f 29 3c
       -0.027197657 -0.017747596 0.0032314972 0.010326236
000020 6c 54 d5 3a 29 41 27 3b 9d c3 f7 bb 1f 83 6c 3c
       0.001627577 0.0025521016 -0.0075611607 0.014435559
000030 f9 34 c2 bb 0f 77 9c 3b c2 63 ac bc 1c b4 67 3b
       -0.005926725 0.004774935 -0.021043662 0.0035355156
000040 fb 8c 28 3c f3 89 b5 bc 28 75 25 ba 03 74 8f bb
       0.010287519 -0.022160506 -0.0006311708 -0.0043778433
000050 41 8f f4 3c 60 b8 a1 3c e5 5c a4 3c 79 a9 9f bc
       0.029853465 0.019741237 0.020063827 -0.01948999
000060 07 5f 96 bb 18 f8 b5 bc 7a 6b 36 bc 2a be 84 bc
       -0.004588965 -0.022213027 -0.011134023 -0.016203959
000070 51 52 79 bb f0 a7 d8 3b 46 f4 45 3c ef df 0e 3c
       -0.003804345 0.0066118166 0.012082165 0.008720382
000080 e6 b4 b3 ba be 59 92 3c ba c1 60 bc 5f ad a1 bb
       -0.0013710528 0.017865058 -0.013718063 -0.0049339975
000090 81 4b 84 3c 0d 62 82 3c 84 8f 14 3b 00 3a da 3a
       0.016149284 0.015915895 0.002266855 0.0016649365
0000a0 63 77 9f 3b 22 8a bf 3c cf 78 a9 bc 5d ba 94 3a
       0.004866527 0.023381297 -0.020687489 0.0011347044
0000b0 ff eb 18 bc 90 8e 1e bc f1 b4 8b bc 72 9e ae bb
       -0.00933361 -0.009677544 -0.017054053 -0.0053289467
0000c0 f7 24 32 3b a3 11 8e ba 45 86 3a bc 2e 9d 08 bb
       0.0027182677 -0.0010838996 -0.011384551 -0.002084564
0000d0 62 ba d2 3a 7f 99 06 bb b2 86 05 bb e9 25 e6 3b
       0.0016077275 -0.0020538268 -0.0020374474 0.007023562
0000e0 b2 17 ab bc df 2f 8a bb d4 e2 83 bb d4 01 a7 bb
       -0.020885322 -0.0042171325 -0.0040248428 -0.0050966535
0000f0 66 ad 2f bb 72 99 10 3b cc c3 1b 3c 91 32 c9 3b
       -0.0026806234 0.0022064117 0.009507131 0.006140061
000100 de 15 fd 3a 61 00 8f 3b d2 ff 1f 3c 7b 0d 96 bb
       0.0019308885 0.004364059 0.009765582 -0.0045792437
000110 0f e2 c4 3b 08 a3 ca bb 15 3a 37 bc 1e 0c 37 3a
       0.0060083936 -0.0061839856 -0.011183281 0.00069827016
000120 64 20 b9 ba 41 21 40 3c 61 19 89 3b 4a 35 53 3c
       -0.0014124033 0.011726678 0.0041839336 0.012891123
000130 d7 3f 61 3c 93 1c a9 bb 8d 9b 40 3c b4 9b 0f bc
       0.013748131 -0.005160877 0.011755836 -0.00876515
000140 58 34 b8 bb b0 8e aa ba 38 b6 90 ba f5 6b c3 3b
       -0.0056214742 -0.0013012495 -0.0011040634 0.005963797
000150 da 67 2b 3c de 84 8c bb f8 dc b0 bb ea dc 7c ba
       0.010461772 -0.0042883 -0.0053974353 -0.0009645956
000160 3a 59 b5 39 af 37 f6 3b 07 7b d8 3b 73 a1 08 bc
       0.0003458949 0.007513962 0.006606463 -0.008339274
000170 a4 50 f2 bb f7 05 c1 bb 53 e1 dc bb 85 48 d8 3b
       -0.007394867 -0.0058906036 -0.006740728 0.006600442
000180 5e 12 00 3c 81 48 ac 3b 4b 4b 7d bc 2f 4f 03 bc
       0.007816879 0.0052576666 -0.015459846 -0.008014484
000190 32 46 d6 3c 30 f6 ba 3c ce e6 a7 3c aa 49 f2 3b
       0.026156519 0.02282247 0.020495798 0.0073940353
0001a0 47 3d 94 3b 2e ef 84 ba 64 e3 b4 3a ab 03 0b bb
       0.0045239064 -0.0010142082 0.0013800678 -0.0021211903
0001b0 6a d5 e3 3b 76 1f 93 bb eb ce 44 3c ac ee 2f 3c
       0.006952931 -0.0044898344 0.012012224 0.010738056
0001c0 d7 32 00 bb 17 1e b6 bb 95 3e 1e bb 7f 85 1d 3c
       -0.0019561553 -0.005557786 -0.0024146189 0.0096143475
0001d0 db d2 ba 3b fe 6e 06 3c 8c 69 c9 3b 11 cc 99 3b
       0.0057014055 0.008205174 0.0061466154 0.004693516
0001e0 32 17 3b 3c f6 8a bd 3b 97 c6 35 3c 98 a0 d3 3b
       0.011419104 0.0057843877 0.011094711 0.0064583533
0001f0 92 e8 14 3c b9 05 5a 3b e8 66 90 3a f4 a5 a8 3a
       0.009088652 0.003326757 0.0011016997 0.0012866841
000200 f9 73 03 3c 16 92 04 bb 2a 57 d7 b9 c6 49 42 bc
       0.0080232555 -0.0020228676 -0.00041072938 -0.011858409
000210 8b 3a d1 bb 42 e3 b4 3b ee 88 ed bb 9b 1f aa bb
       -0.0063851527 0.0055202553 -0.0072489893 -0.005191756
000220 3f ae 60 bc f6 05 9c bc 08 64 2d bb 6f 37 2a bb
       -0.0137134185 -0.019045811 -0.0026457328 -0.0025972982
000230 ce 1f 92 3b f5 91 43 ba e6 8b 32 bc 82 03 c2 bb
       0.004459358 -0.0007460409 -0.010897612 -0.0059208283
000240 40 32 2a bb b1 c9 53 bc 1d c7 bd 3b b1 70 ec 39
       -0.0025969893 -0.012926505 0.0057915584 0.0004509739
000250 4d eb 0a bc 47 79 26 bc 1f e3 00 3d e6 b2 6c 3c
       -0.008478952 -0.010160751 0.0314666 0.01444695
000260 49 d3 8b bb 13 3a 7d bb bf f8 70 bb 49 84 a2 bb
       -0.0042671305 -0.0038639351 -0.0036769358 -0.0049596173
000270 59 a0 97 3a c9 8d 4d 3b 43 2e 59 b9 d2 e0 e1 ba
       0.0011568173 0.0031365028 -0.00020711966 -0.0017233139
000280 81 2f d5 38 b1 47 e4 bb 49 df 68 bc 87 09 6f bc
       0.0001016548 -0.006966554 -0.014213392 -0.014589674
000290 8d 17 71 bc 7d bc 5b ba fd da 41 bc 30 0c c7 3b
       -0.014715088 -0.0008382274 -0.011831996 0.006074451
0002a0 7a da 3e 3c 0c a5 20 3c 8e fb a6 3b 21 10 5e 3a
       0.011648769 0.009804975 0.0050959056 0.00084710313
0002b0 34 85 0b bc 8a 1f 2b bc 25 e5 ad 3b bc 97 1e 3c
       -0.008515645 -0.010444531 0.005306857 0.009679731
0002c0 20 d7 aa 3b 4e 56 8e 3c cd ee 18 3c ef 5d 74 3c
       0.005213633 0.017375138 0.009334278 0.014914974
0002d0 7e 6a d3 3b ac f5 4a 3b 23 67 0b bc c0 53 5f 3b
       0.006451904 0.0030969186 -0.008508476 0.0034077018
0002e0 ec 10 0a bc 08 56 64 ba a8 73 45 3c b1 23 82 3b
       -0.008426886 -0.00087103294 0.0120515 0.00397154
0002f0 38 ea ef bb 89 89 af 3b da 84 22 3b ed 3b 35 ba
       -0.007321622 0.0053569716 0.0024798424 -0.00069135317
000300 14 54 73 bb 11 c7 1e bc 7d 1d 27 bc ef c1 79 3c
       -0.0037128972 -0.009691016 -0.010199902 0.015243991
000310 d9 a8 13 3c b2 c9 af 3b 4a 29 c0 bb 07 d8 5a bc
       0.009012424 0.00536462 -0.005864297 -0.013357169
000320 33 e9 97 bc c8 5b 66 bb 7f 0a cd bb fa 1a 6c 3c
       -0.018543815 -0.003514992 -0.0062573547 0.014410729
000330 d7 b2 39 3c 9a 87 89 bb 0d 51 41 3a 60 c9 80 bc
       0.011334143 -0.004197073 0.0007374443 -0.015721023
000340 a4 14 fc 3b 0c 84 20 bc ce 7f 07 bc e7 9f 39 38
       0.0076928902 -0.009797107 -0.008270217 4.4256358e-05
000350 02 f3 2a 3a 17 26 b7 bb db a2 e8 ba d3 e2 1a bb
       0.00065211963 -0.0055892575 -0.001774873 -0.0023633733
000360 be e5 61 3b 92 a3 6f 3c 43 6d 3a 3c f4 bc 4a 3c
       0.0034469212 0.014626401 0.011378589 0.0123741515
000370 3c 16 91 ba 68 6c d1 3a 3b 13 59 b9 14 ee 80 3a
       -0.0011069248 0.0015977742 -0.00020701897 0.0009836578
000380 af a9 14 bb d7 fb 1e bb 76 9c 36 bc d5 96 6b ba
       -0.0022684147 -0.0024258995 -0.011145702 -0.00089870143
000390 31 b9 c2 3b 32 b2 02 3c a0 94 39 bb 1f 61 ac 3b
       0.0059424867 0.007977055 -0.0028317347 0.005260601
0003a0 59 53 52 3b ee 45 c6 b9 c3 f0 22 bc c7 db 74 3b
       0.0032093136 -0.00037817605 -0.009945097 0.0037362443
0003b0 5d c8 a0 ba 28 b9 42 bc f5 37 6c 3a 5a e8 19 bb
       -0.0012266744 -0.011884965 0.0009011024 -0.002348444
0003c0 64 e7 fe bb 2b c9 37 3b 52 08 57 3a 27 5a 45 3c
       -0.0077790488 0.002804349 0.0008202839 0.01204542
0003d0 d9 e0 b7 3c 02 b3 47 3c a8 0d 3d 3a 19 bc 9f 3b
       0.022446083 0.012188675 0.0007211813 0.004874718
0003e0 29 5e 0c bb 04 cb 51 3c 2d 5d b7 bc a3 b4 e4 3b
       -0.0021418429 0.01280475 -0.022383297 0.0069795414
0003f0 d9 40 4d bc 91 ba 03 bc 88 5d a0 bc ed 9e 9b bb
       -0.012527668 -0.008040086 -0.01957585 -0.00474917

fc.bias f4 [2]
000000 bb d8 45 bd 11 aa 51 3d
       -0.048302393 0.05118758
