seibetsujudge_cpu.pt (torch, 123705 bytes, 8 tensors)

conv.weight f4 [6, 3, 3, 3]
00000000: a7db 89ba a5f8 8e3d 45b9 43be 28ed 0ebe
00000010: 17a7 eebd 0845 2e3c eaf4 9b3b 9499 f33d
00000020: dc65 53bd 7a2c 513d fdd4 babd bbc1 8fbd
00000030: 3786 3abe 7784 2cbe 1bde f3bd 6536 793c
00000040: 48d1 313d f775 a73d 09e8 04be b5f6 efbd
00000050: 5f26 183d c978 253e baa8 a4bd 6d54 d53d
00000060: c8ee bbbc 61f0 49bc b17d 0f3e 8e6f 37be
00000070: 486e 12be 822e 8fbd 85cc 9abd 61a7 143e
00000080: 2655 15be 72ca b5bd cab8 09be c3be 37be
00000090: ae8b f6bd 3cd9 093e f907 613d 392a b03d
000000a0: d5f3 9ebc bff1 04be 030a d23c 62a3 40be
000000b0: c896 16be 4c73 cbbd 2419 c33d ed8b b03d
000000c0: a416 acbd 412a f1bc d4f4 ca3d 3b7b 463e
000000d0: 7f68 a73d ef94 033d bb0c 683e 7fca 7fbc
000000e0: ef57 113e 8f2d 99bd d7ef 7fbd 5b77 aabc
000000f0: 47ba 003e f3b8 ea3d 1d48 8bbd edd0 e43d
00000100: 5e39 253e c666 193d 318c 793d dc44 c43d
00000110: abb0 323e b993 663e 3cbb e0bd 6934 e7bc
00000120: 7eed 043e 3d3f 5d3e db53 683e 45fb 7a3e
00000130: aa01 e23d c548 c0bd a93f d13d 3f37 1abd
00000140: 2042 c6bd c889 933e 6d34 8c3e c7b5 083d
00000150: ac2f b33d aeba ad3a 22c4 d53d 057a 77bc
00000160: c3d7 8e3d 298c 3ebc 1c12 bc3c b79c 693d
00000170: cc0d 523e e1f9 24bd 14d1 a4be 0079 14be
00000180: c07f 54bc 8f31 1dbe 905a 6bbe c415 05be
00000190: dc4f 2f3e dcb3 603e 87a2 cebd a0e9 a2bd
000001a0: 3516 e3bd d451 793d 1f74 1cbe 8ce7 4dbd
000001b0: 4edf bf3a 239a 6e3c 5382 a3bd be13 173e
000001c0: 2ab1 1bbe 6aba 273e 1090 463e f0aa 3ebe
000001d0: 4040 6cbd 2edb c8b9 9dcb 683c e3cf 2f3d
000001e0: 04f1 b13d bd1a 86bc b4b4 c9bd f14d 1b3e
000001f0: 2286 37be bbc2 c2bd 8a70 9abd 80c0 e9bd
00000200: affa 90bd 5b41 2abe 2fd2 91bd d977 303d
00000210: 6552 d4bd 4cd9 d5bc e89f 113e f50b 0fbd
00000220: 1e99 b5bc 9da6 22bd 3f39 89b7 960a 953d
00000230: ed79 083e 1be1 dd3d 9c8f 233e a27d 24bd
00000240: cf7c 45be d74c eebd cf3d e63d 42f8 56bd
00000250: d7f7 15be e83c 41be 3a62 5cbe 38a3 4bbe
00000260: 64b3 8cbd ef03 bb3d b1ae ad3d b174 4bbe
00000270: cc3f b73d 1ae8 3abe 8128 88bd 3d43 c1bd
00000280: 7a50 62bd 8129 59bd
-0.0010517732 0.06981019 -0.19113643 -0.13957655 -0.116529636 0.0106365755 0.0047594206 0.11894527
-0.051610813 0.051067807 -0.091226555 -0.07019373 -0.18215261 -0.16847406 -0.11907598 0.015210723
0.043412477 0.08176797 -0.1297914 -0.117169775 0.03714597 0.16159357 -0.080399945 0.104164936
-0.022941008 -0.012325377 0.14012791 -0.17913648 -0.14299881 -0.069912925 -0.0755854 0.14516975
-0.14583263 -0.08876504 -0.13449398 -0.17943864 -0.120383605 0.13461775 0.054939244 0.08601803
-0.019403378 -0.12982844 0.02563954 -0.18812326 -0.14705956 -0.099341005 0.095262796 0.08620439
-0.08402756 -0.029439094 0.099099785 0.19382946 0.08174228 0.032124456 0.22661106 -0.015612244
0.141937 -0.07479393 -0.06248459 -0.020808866 0.12571059 0.114610575 -0.06800864 0.11172662
0.16135165 0.037451528 0.060924713 0.095834464 0.17450206 0.22517289 -0.10973212 -0.028223233
0.12981221 0.21606155 0.22688238 0.24509914 0.11035474 -0.0938888 0.1021722 -0.037650343
-0.09680581 0.28816056 0.27383748 0.03337648 0.08749327 0.0013254487 0.104378 -0.015104775
0.06974747 -0.0116300965 0.022957854 0.05703422 0.20513076 -0.040277366 -0.32190764 -0.14499283
-0.012969911 -0.15350936 -0.22983766 -0.12996584 0.17120308 0.21943611 -0.100895934 -0.07954717
-0.1108822 0.060869053 -0.15278672 -0.05026965 0.0014638694 0.014563116 -0.07983842 0.14753625
-0.15204301 0.16379705 0.19390893 -0.18619895 -0.05767846 -0.00038310274 0.014208701 0.042922866
0.08688548 -0.016370172 -0.098489195 0.15166451 -0.17922261 -0.09509798 -0.075409964 -0.114136696
-0.07079064 -0.16626494 -0.071201675 0.043083046 -0.10367278 -0.026104592 0.14221156 -0.034923512
-0.022167739 -0.039709676 -1.635833e-05 0.0727741 0.13327761 0.10833951 0.15972751 -0.040158875
-0.19285892 -0.1163575 0.11242258 -0.05248285 -0.14645325 -0.1887089 -0.21521845 -0.19886482
-0.068701535 0.0913161 0.08480585 -0.19868733 0.08947715 -0.18252602 -0.066483505 -0.09436653
-0.05525253 -0.053018097

conv.bias f4 [6]
00000000: 4ad5 5abe 5788 4abe a014 4c3b 75a9 5b3d
00000010: cc12 45bd 2ac5 b6bd
-0.21370426 -0.19778572 0.0031140223 0.053628404 -0.04811363 -0.08924325

bn.weight f4 [6]
00000000: 7388 7f3f f6ce 7f3f d181 453f 4746 5c3f
00000010: db44 813f ae20 753f
0.9981758 0.9992517 0.7715121 0.86044735 1.0099138 0.9575299

bn.bias f4 [6]
00000000: 69e9 3b3a 535b 133c 1769 10be 6b09 22be
00000010: d321 50bb ebb4 8c3d
0.0007168265 0.008993941 -0.14102589 -0.15823905 -0.0031758442 0.06870445

bn.running_mean f4 [6]
00000000: bcec 2b33 795a 0d33 713f 5b3f 2a6c 613e
00000010: e09f 3938 f38c ef37
4.002935e-08 3.2911405e-08 0.8564368 0.22013918 4.4256332e-05 2.8556655e-05

bn.running_var f4 [6]
00000000: cbc1 bb30 7823 4f30 fba9 393e 19b3 493c
00000010: 7f89 1036 a840 2136
1.366112e-09 7.5356565e-10 0.18131249 0.012310767 2.1537705e-06 2.4028504e-06

fc.weight f4 [2, 15000]
00000000: 09d5 0a3c 82cb 4939 0098 fb3b 0701 68bb
00000010: 7528 033c c01e 603b 3395 ccbb 18ee e43b
00000020: 62ce 2a3a 4f7b 07bb 4bb5 f43b f0cc 08bc
00000030: 47fa 80b8 dc68 f7ba 1529 a43b 1add 513b
00000040: 9a87 0b3b 9d5b 863a 5fae bcba 5c89 a1ba
00000050: de27 e5bb 46c3 913b 1b14 da3b a638 b83b
00000060: bb48 b8bb c0ea 103b 2fd0 bbbb d983 3abb
00000070: 6566 9abb 176e 383b 12b6 59bb ac60 25b9
00000080: b8ff dd39 0784 ac3b c0c8 cebb 9e06 c4bb
00000090: 4796 b3bb 582b 9f3b c6a8 5ebb be6a c73b
000000a0: 190a 363b 1fb0 063b ee78 8139 3aa2 b8ba
000000b0: 2989 a73a 1ef0 33bb f4cb f13a 1f20 93bb
000000c0: 5b52 d1bb 4372 cfba 8eac a1b9 c630 dfbb
000000d0: b05a 13ba 6c88 063c 89b8 5e3b b5c0 1f3a
000000e0: 7602 e3bb cb6f a03b 2f92 a0bb df02 07bb
000000f0: a291 26bb ee92 87ba 3404 ee38 a676 dd3b
00000100: a574 883a 536f f03b bf74 a43b 215b a8bb
00000110: 37b6 4a3b 9e19 febb 445d 8fbb 0597 a1b8
00000120: 909b db38 ddd0 fd3b b09e 5bbb 023a cfba
00000130: 6a8e 163a 47d0 3dbc 12b7 9a3b 1170 f4bb
00000140: e85b 0f39 17c8 b2ba 571e 8cbb 899e 903a
00000150: cd08 de3b c4d5 1abb cc0c 9ebb c750 44bb
00000160: df31 04bc 1e20 733b 5c67 7fbb 06c1 b1bb
00000170: 65e9 9abb b44c 943b 159a 893b a131 ca3b
00000180: ff6a 3e3b 2a1a 4cbb 3736 1cbb 6c94 173b
00000190: 42cd 783b b38f 453b 4498 7bbb fff3 79bb
000001a0: 40d2 07bc 6062 ea3a fe59 95bb 85bf edbb
000001b0: 8b66 eb3b 00ab 9fbb 6711 9eb9 a0e9 403b
000001c0: e346 ca3a 8f3d 7abb 1a5f b7bb d1ac e93b
000001d0: 1208 093b 24cb eb3b 3c16 dfba 3742 613b
000001e0: 5a3b bdba cdcf cf3a b038 c9ba 538e 363b
000001f0: dac3 2a3b 2141 17b9 1585 edba 0722 a4bb
00000200: 1090 6a3b ad6d 0dbc 5034 c83a d1a2 cebb
00000210: 1ec7 fcbb 7b88 4db9 0d58 cfbb 9bd2 303a
00000220: 6c21 a6ba a2c5 12bc 7483 5e3a e3bb 513b
00000230: cd64 553b 8c8b 83ba 8e8a dabb 2cce a1ba
00000240: d16d 3b3b 8173 44bb 4fdf 4a3b 24fe af3b
00000250: bd37 8ebb 788e 6437 869c 573c bea0 193c
00000260: 4a21 393a 03cd 883a 778a d1bb ad8c 2e3a
00000270: 0910 ba3b 9fe2 f13b 8e0b 9e3b 7494 923a
00000280: dc7b 7b3b 4985 8abb dd6a afbb c906 e9bb
00000290: d4d9 053c 815d b03b e225 b8bb 24eb 523b
000002a0: 51d2 ca3b 63ec 493c d51a 153c b441 e13b
000002b0: e963 abba 69c9 0ebb 9211 f83b af2f b23b
000002c0: 3d19 97bb c51d 003c d502 903b e2c8 a73b
000002d0: 0c2a 91bb 5827 423b a20a 3abb d6d6 d13b
000002e0: 596a bdba d5e5 513b b93c c13a 733d 653b
000002f0: 1d34 7dbb 7904 2b3b 77e3 cdbb 2562 883a
00000300: b13a b4bb f893 03bc 8b10 d6bb d803 d43b
00000310: e68b 913b d6cf fb3b dd21 d73b 2e24 eebb
00000320: 0902 f0bb 2404 aeba 75f6 acbb 13d1 ad3b
00000330: 4473 cbbb c6be 81bb 5c1e 01bc 47e4 9bbb
00000340: 9cd8 dc3b be5c d63b 9150 c03b 14a9 f23b
00000350: ed59 fe3b c42e 07bb 4d76 6c3b 2329 ef3b
00000360: 149b 323b c39e 263c dac6 cb3b 471d a73b
00000370: 13b2 39bb 972b 813b fb48 7c3a 7169 fcba
00000380: 1907 96bb 7a55 95bb e814 cdbb 2268 b43b
00000390: 8100 bf3b 2a7b 71ba db08 9abb 4a95 cf3b
000003a0: 2740 ad3b 9d71 253a e70d 7bbb f9ae f63b
000003b0: a368 5c3b b4ba adbb e271 0c3c 2111 e43b
000003c0: 4a10 42bb 4ff2 963b e339 97bb 9c8b a4ba
000003d0: 24f8 e33b d18e bd39 5e6c bcbb 4a43 31bb
000003e0: f171 ebba 514d cbba 7880 dfba 732a e73b
000003f0: dbd4 fb38 525a babb 5238 6539 eaf2 713b
0.008473643 0.00019244666 0.007678032 -0.0035401003 0.008005251 0.0034198016 -0.006243372 0.006986391
0.0006515739 -0.0020672863 0.007467901 -0.008349642 -6.1501334e-05 -0.0018875855 0.00500978 0.0032022656
0.0021290542 0.0010250692 -0.0014395228 -0.0012324261 -0.006993278 0.0044483272 0.006655229 0.0056219874
-0.0056239045 0.0022112578 -0.0057316045 -0.0028459935 -0.0047119134 0.002814179 -0.0033220095 -0.0001577164
0.0004234293 0.0052647623 -0.0063105524 -0.005982234 -0.005480561 0.004857462 -0.0033975109 0.0060857227
0.0027777015 0.0020551754 0.00024694897 -0.0014086433 0.0012781966 -0.0027456353 0.0018447624 -0.004489913
-0.0063879914 -0.0015826899 -0.00030836876 -0.006811234 -0.00056211185 0.008211236 0.0033984503 0.0006094084
-0.0069277836 0.0048961393 -0.004900239 -0.0020601077 -0.0025416394 -0.0010343471 0.00011349507 0.0067585288
0.0010410739 0.0073374896 0.0050188 -0.0051378165 0.0030931362 -0.0077545187 -0.004375132 -7.705208e-05
0.000104717095 0.0077458457 -0.0033511333 -0.0015810134 0.0005743267 -0.011585302 0.0047215307 -0.0074596484
0.0001367178 -0.0013639954 -0.0042760777 0.0011033575 0.0067759515 -0.002362595 -0.004823303 -0.0029955374
-0.008068531 0.0037098 -0.003897152 -0.0054246215 -0.00472753 0.0045257453 0.004199276 0.006170467
0.0029055474 -0.0031143525 -0.0023836026 0.0023129238 0.003796414 0.0030145466 -0.0038390318 -0.0038139818
-0.008289874 0.0017882101 -0.004557847 -0.007255497 0.007183855 -0.0048726797 -0.00030149074 0.0029436126
0.0015432503 -0.0038183664 -0.005596054 0.007131197 0.0020909351 0.007195847 -0.0017020176 0.0034371743
-0.0014437244 0.0015854776 -0.0015351977 0.0027855828 0.0026056678 -0.00014424745 -0.0018121327 -0.005008939
0.0035791434 -0.008632106 0.0015274379 -0.0063060303 -0.0077141663 -0.00019601166 -0.006327635 0.000674525
-0.0012674755 -0.008958252 0.0008488216 0.0032002858 0.0032561303 -0.0010036095 -0.006669349 -0.0012344769
0.0028599391 -0.0029976072 0.0030955856 0.005370872 -0.0043401406 1.362303e-05 0.013159877 0.009376703
0.00070621504 0.0010437075 -0.00639468 0.00066585356 0.005678181 0.0073817517 0.004823155 0.0011183158
0.0038373386 -0.0042273146 -0.0053533153 -0.0071114046 0.00816961 0.0053822403 -0.0056197504 0.0032183612
0.0061896225 0.012324425 0.009100636 0.0068742875 -0.001307604 -0.002178753 0.007570454 0.0054378132
-0.004611163 0.007819598 0.004394869 0.0051203826 -0.004430061 0.0029625501 -0.0028387685 0.0064037843
-0.001445125 0.003202786 0.0014742828 0.0034979254 -0.0038635798 0.0026095195 -0.0062832194 0.0010405226
-0.0055001606 -0.008030884 -0.006532734 0.006470185 0.004441726 0.007684688 0.006565316 -0.0072674965
-0.0073244614 -0.001327638 -0.0052784034 0.0053044646 -0.006208809 -0.0039595095 -0.007880773 -0.0047574374
0.006739689 0.0065418174 0.0058689793 0.0074054096 0.007762185 -0.002062724 0.0036081255 0.007298605
0.0027253078 0.010169688 0.0062187733 0.0050999257 -0.00283349 0.003941964 0.0009623912 -0.0019257498
-0.004578483 -0.0045573087 -0.0062585957 0.0055055777 0.0058289175 -0.0009211773 -0.0047007627 0.0063349353
0.0052871886 0.000631118 -0.0038307847 0.0075281826 0.0033631704 -0.0053017978 0.008572074 0.0069600497
-0.002961176 0.004606522 -0.004615055 -0.0012553814 0.006957071 0.00036155296 -0.005750223 -0.0027048164
-0.0017963034 -0.0015510713 -0.0017051836 0.007054621 0.0001200826 -0.0056870366 0.00021860123 0.003691847

fc.bias f4 [2]
00000000: 977b 61bd dd4c 6d3d
-0.055049505 0.05793463
